…
        layers += [conv2d, nn.ReLU(inplace=True)]
      in_channels = c

  return nn.Sequential(*layers)    
  
 
# VGG11 model의 앞부분을 생성한다.
# 물론 해당 model은 VGG Network의 앞 부분인 convolution 계층에 해당한다
# 후에 VGG클래스의 생성자에 이 모델을 삽입하여 완성된 VGG11모델을 반환할 것이다.
vgg11_layers = get_vgg_layers(vgg11_config, batch_norm = True)

# 완성된 VGG11네트워크 생성하기
OUTPUT_DIM = 2 # 개와 고양이 두 개의 클래스를 이용하므로
model = VGG(vgg11_layers, OUTPUT_DIM)
print(model)

# 사전 훈련된 모델을 다음과 같이 생성해도 되지만, 직접 구현하기 위해 다음 방법을 사용하지는 않았다.
# import torchvision.models as models
# pretrained_model = models.vgg11_bn(pretrained = True)

# 모델의 전체 개요
VGG(
  (features): Sequential(
    (0): Conv2d(3, 64, kernel_size=(3, 3), stride=(1, 1), padding=(1, 1))
    (1): BatchNorm2d(64, eps=1e-05, momentum=0.1, affine=True, track_running_stats=True)
    (2): ReLU(inplace=True)
    (3): MaxPool2d(kernel_size=2, stride=2, padding=0, dilation=1, ceil_mode=False)
    (4): Conv2d(64, 128, kernel_size=(3, 3), stride=(1, 1), padding=(1, 1))
    (5): BatchNorm2d(128, eps=1e-05, momentum=0.1, affine=True, track_running_stats=True)
    (6): ReLU(inplace=True)
    (7): MaxPool2d(kernel_size=2, stride=2, padding=0, dilation=1, ceil_mode=False)
    (8): Conv2d(128, 256, kernel_size=(3, 3), stride=(1, 1), padding=(1, 1))
    (9): BatchNorm2d(256, eps=1e-05, momentum=0.1, affine=True, track_running_stats=True)
    (10): ReLU(inplace=True)
    (11): Conv2d(256, 256, kernel_size=(3, 3), stride=(1, 1), padding=(1, 1))
    (12): BatchNorm2d(256, eps=1e-05, momentum=0.1, affine=True, track_running_stats=True)
    (13): ReLU(inplace=True)
    (14): MaxPool2d(kernel_size=2, stride=2, padding=0, dilation=1, ceil_mode=False)
    (15): Conv2d(256, 512, kernel_size=(3, 3), stride=(1, 1), padding=(1, 1))
    (16): BatchNorm2d(512, eps=1e-05, momentum=0.1, affine=True, track_running_stats=True)
    (17): ReLU(inplace=True)
    (18): Conv2d(512, 512, kernel_size=(3, 3), stride=(1, 1), padding=(1, 1))
    (19): BatchNorm2d(512, eps=1e-05, momentum=0.1, affine=True, track_running_stats=True)
    (20): ReLU(inplace=True)
    (21): MaxPool2d(kernel_size=2, stride=2, padding=0, dilation=1, ceil_mode=False)
    (22): Conv2d(512, 512, kernel_size=(3, 3), stride=(1, 1), padding=(1, 1))
    (23): BatchNorm2d(512, eps=1e-05, momentum=0.1, affine=True, track_running_stats=True)
    (24): ReLU(inplace=True)
    (25): Conv2d(512, 512, kernel_size=(3, 3), stride=(1, 1), padding=(1, 1))
    (26): BatchNorm2d(512, eps=1e-05, momentum=0.1, affine=True, track_running_stats=True)
    (27): ReLU(inplace=True)
    (28): MaxPool2d(kernel_size=2, stride=2, padding=0, dilation=1, ceil_mode=False)
  )
  (avgpool): AdaptiveAvgPool2d(output_size=7)
  (classifier): Sequential(
    (0): Linear(in_features=25088, out_features=4096, bias=True)
    (1): ReLU(inplace=True)
    (2): Dropout(p=0.5, inplace=False)
    (3): Linear(in_features=4096, out_features=4096, bias=True)
    (4): ReLU(inplace=True)
    (5): Dropout(p=0.5, inplace=False)
    (6): Linear(in_features=4096, out_features=2, bias=True)
  )
)


# 모델을 완결하였으니 본격적으로 이미지에 대한 전처리를 위한 코드를 작성하자
train_transforms = transforms.Compose([
                  transforms.Resize((256,256)),
                  transforms.RandomRotation(5), # 주어진 이미지 데이터를 5 degree 이하로 회전시키는 data augmentation
                  transforms.RandomHorizontalFlip(0.5),
                  transforms.ToTensor(),
                  transforms.Normalize(mean=[0.485,0.456,0.406],std=[0.229,0.224,0.225])
…
