…
        "colab": {
          "base_uri": "https://localhost:8080/"
        },
        "id": "EqRAeSDtyX11",
        "outputId": "bd7ec5d9-b3c5-4cf9-b512-89e677ca3fb7"
      },
      "execution_count": 27,
      "outputs": [
        {
          "output_type": "stream",
          "name": "stdout",
          "text": [
            "----------------------------------------------------------------\n",
            "        Layer (type)               Output Shape         Param #\n",
            "================================================================\n",
            "            Conv2d-1         [-1, 64, 224, 224]           1,792\n",
            "       BatchNorm2d-2         [-1, 64, 224, 224]             128\n",
            "              ReLU-3         [-1, 64, 224, 224]               0\n",
            "         MaxPool2d-4         [-1, 64, 112, 112]               0\n",
            "            Conv2d-5        [-1, 256, 112, 112]          16,640\n",
            "       BatchNorm2d-6         [-1, 64, 112, 112]             128\n",
            "              ReLU-7         [-1, 64, 112, 112]               0\n",
            "            Conv2d-8         [-1, 64, 112, 112]           4,160\n",
            "       BatchNorm2d-9         [-1, 64, 112, 112]             128\n",
            "             ReLU-10         [-1, 64, 112, 112]               0\n",
            "           Conv2d-11         [-1, 64, 112, 112]          36,928\n",
            "      BatchNorm2d-12         [-1, 64, 112, 112]             128\n",
            "             ReLU-13         [-1, 64, 112, 112]               0\n",
            "           Conv2d-14        [-1, 256, 112, 112]          16,640\n",
            "       BottleNeck-15        [-1, 256, 112, 112]               0\n",
            "      BatchNorm2d-16        [-1, 256, 112, 112]             512\n",
            "             ReLU-17        [-1, 256, 112, 112]               0\n",
            "           Conv2d-18         [-1, 64, 112, 112]          16,448\n",
            "      BatchNorm2d-19         [-1, 64, 112, 112]             128\n",
            "             ReLU-20         [-1, 64, 112, 112]               0\n",
            "           Conv2d-21         [-1, 64, 112, 112]          36,928\n",
            "      BatchNorm2d-22         [-1, 64, 112, 112]             128\n",
            "             ReLU-23         [-1, 64, 112, 112]               0\n",
            "           Conv2d-24        [-1, 256, 112, 112]          16,640\n",
            "       BottleNeck-25        [-1, 256, 112, 112]               0\n",
            "      BatchNorm2d-26        [-1, 256, 112, 112]             512\n",
            "             ReLU-27        [-1, 256, 112, 112]               0\n",
            "           Conv2d-28         [-1, 64, 112, 112]          16,448\n",
            "      BatchNorm2d-29         [-1, 64, 112, 112]             128\n",
            "             ReLU-30         [-1, 64, 112, 112]               0\n",
            "           Conv2d-31         [-1, 64, 112, 112]          36,928\n",
            "      BatchNorm2d-32         [-1, 64, 112, 112]             128\n",
            "             ReLU-33         [-1, 64, 112, 112]               0\n",
            "           Conv2d-34        [-1, 256, 112, 112]          16,640\n",
            "       BottleNeck-35        [-1, 256, 112, 112]               0\n",
            "           Conv2d-36          [-1, 512, 56, 56]         131,584\n",
            "      BatchNorm2d-37        [-1, 256, 112, 112]             512\n",
            "             ReLU-38        [-1, 256, 112, 112]               0\n",
            "           Conv2d-39          [-1, 128, 56, 56]          32,896\n",
            "      BatchNorm2d-40          [-1, 128, 56, 56]             256\n",
            "             ReLU-41          [-1, 128, 56, 56]               0\n",
            "           Conv2d-42          [-1, 128, 56, 56]         147,584\n",
            "      BatchNorm2d-43          [-1, 128, 56, 56]             256\n",
            "             ReLU-44          [-1, 128, 56, 56]               0\n",
            "           Conv2d-45          [-1, 512, 56, 56]          66,048\n",
            "       BottleNeck-46          [-1, 512, 56, 56]               0\n",
            "      BatchNorm2d-47          [-1, 512, 56, 56]           1,024\n",
            "             ReLU-48          [-1, 512, 56, 56]               0\n",
            "           Conv2d-49          [-1, 128, 56, 56]          65,664\n",
            "      BatchNorm2d-50          [-1, 128, 56, 56]             256\n",
            "             ReLU-51          [-1, 128, 56, 56]               0\n",
            "           Conv2d-52          [-1, 128, 56, 56]         147,584\n",
            "      BatchNorm2d-53          [-1, 128, 56, 56]             256\n",
            "             ReLU-54          [-1, 128, 56, 56]               0\n",
            "           Conv2d-55          [-1, 512, 56, 56]          66,048\n",
            "       BottleNeck-56          [-1, 512, 56, 56]               0\n",
            "      BatchNorm2d-57          [-1, 512, 56, 56]           1,024\n",
            "             ReLU-58          [-1, 512, 56, 56]               0\n",
            "           Conv2d-59          [-1, 128, 56, 56]          65,664\n",
            "      BatchNorm2d-60          [-1, 128, 56, 56]             256\n",
            "             ReLU-61          [-1, 128, 56, 56]               0\n",
            "           Conv2d-62          [-1, 128, 56, 56]         147,584\n",
            "      BatchNorm2d-63          [-1, 128, 56, 56]             256\n",
            "             ReLU-64          [-1, 128, 56, 56]               0\n",
            "           Conv2d-65          [-1, 512, 56, 56]          66,048\n",
            "       BottleNeck-66          [-1, 512, 56, 56]               0\n",
            "      BatchNorm2d-67          [-1, 512, 56, 56]           1,024\n",
            "             ReLU-68          [-1, 512, 56, 56]               0\n",
            "           Conv2d-69          [-1, 128, 56, 56]          65,664\n",
            "      BatchNorm2d-70          [-1, 128, 56, 56]             256\n",
            "             ReLU-71          [-1, 128, 56, 56]               0\n",
            "           Conv2d-72          [-1, 128, 56, 56]         147,584\n",
            "      BatchNorm2d-73          [-1, 128, 56, 56]             256\n",
            "             ReLU-74          [-1, 128, 56, 56]               0\n",
            "           Conv2d-75          [-1, 512, 56, 56]          66,048\n",
            "       BottleNeck-76          [-1, 512, 56, 56]               0\n",
            "           Conv2d-77         [-1, 1024, 28, 28]         525,312\n",
            "      BatchNorm2d-78          [-1, 512, 56, 56]           1,024\n",
            "             ReLU-79          [-1, 512, 56, 56]               0\n",
            "           Conv2d-80          [-1, 256, 28, 28]         131,328\n",
            "      BatchNorm2d-81          [-1, 256, 28, 28]             512\n",
            "             ReLU-82          [-1, 256, 28, 28]               0\n",
            "           Conv2d-83          [-1, 256, 28, 28]         590,080\n",
            "      BatchNorm2d-84          [-1, 256, 28, 28]             512\n",
            "             ReLU-85          [-1, 256, 28, 28]               0\n",
            "           Conv2d-86         [-1, 1024, 28, 28]         263,168\n",
            "       BottleNeck-87         [-1, 1024, 28, 28]               0\n",
            "      BatchNorm2d-88         [-1, 1024, 28, 28]           2,048\n",
            "             ReLU-89         [-1, 1024, 28, 28]               0\n",
            "           Conv2d-90          [-1, 256, 28, 28]         262,400\n",
            "      BatchNorm2d-91          [-1, 256, 28, 28]             512\n",
            "             ReLU-92          [-1, 256, 28, 28]               0\n",
            "           Conv2d-93          [-1, 256, 28, 28]         590,080\n",
            "      BatchNorm2d-94          [-1, 256, 28, 28]             512\n",
            "             ReLU-95          [-1, 256, 28, 28]               0\n",
            "           Conv2d-96         [-1, 1024, 28, 28]         263,168\n",
            "       BottleNeck-97         [-1, 1024, 28, 28]               0\n",
            "      BatchNorm2d-98         [-1, 1024, 28, 28]           2,048\n",
            "             ReLU-99         [-1, 1024, 28, 28]               0\n",
            "          Conv2d-100          [-1, 256, 28, 28]         262,400\n",
            "     BatchNorm2d-101          [-1, 256, 28, 28]             512\n",
            "            ReLU-102          [-1, 256, 28, 28]               0\n",
            "          Conv2d-103          [-1, 256, 28, 28]         590,080\n",
            "     BatchNorm2d-104          [-1, 256, 28, 28]             512\n",
            "            ReLU-105          [-1, 256, 28, 28]               0\n",
            "          Conv2d-106         [-1, 1024, 28, 28]         263,168\n",
            "      BottleNeck-107         [-1, 1024, 28, 28]               0\n",
            "     BatchNorm2d-108         [-1, 1024, 28, 28]           2,048\n",
            "            ReLU-109         [-1, 1024, 28, 28]               0\n",
            "          Conv2d-110          [-1, 256, 28, 28]         262,400\n",
            "     BatchNorm2d-111          [-1, 256, 28, 28]             512\n",
            "            ReLU-112          [-1, 256, 28, 28]               0\n",
            "          Conv2d-113          [-1, 256, 28, 28]         590,080\n",
            "     BatchNorm2d-114          [-1, 256, 28, 28]             512\n",
            "            ReLU-115          [-1, 256, 28, 28]               0\n",
            "          Conv2d-116         [-1, 1024, 28, 28]         263,168\n",
            "      BottleNeck-117         [-1, 1024, 28, 28]               0\n",
            "     BatchNorm2d-118         [-1, 1024, 28, 28]           2,048\n",
            "            ReLU-119         [-1, 1024, 28, 28]               0\n",
            "          Conv2d-120          [-1, 256, 28, 28]         262,400\n",
            "     BatchNorm2d-121          [-1, 256, 28, 28]             512\n",
            "            ReLU-122          [-1, 256, 28, 28]               0\n",
            "          Conv2d-123          [-1, 256, 28, 28]         590,080\n",
            "     BatchNorm2d-124          [-1, 256, 28, 28]             512\n",
            "            ReLU-125          [-1, 256, 28, 28]               0\n",
            "          Conv2d-126         [-1, 1024, 28, 28]         263,168\n",
            "      BottleNeck-127         [-1, 1024, 28, 28]               0\n",
            "     BatchNorm2d-128         [-1, 1024, 28, 28]           2,048\n",
            "            ReLU-129         [-1, 1024, 28, 28]               0\n",
            "          Conv2d-130          [-1, 256, 28, 28]         262,400\n",
            "     BatchNorm2d-131          [-1, 256, 28, 28]             512\n",
            "            ReLU-132          [-1, 256, 28, 28]               0\n",
            "          Conv2d-133          [-1, 256, 28, 28]         590,080\n",
            "     BatchNorm2d-134          [-1, 256, 28, 28]             512\n",
            "            ReLU-135          [-1, 256, 28, 28]               0\n",
            "          Conv2d-136         [-1, 1024, 28, 28]         263,168\n",
            "      BottleNeck-137         [-1, 1024, 28, 28]               0\n",
            "          Conv2d-138         [-1, 2048, 14, 14]       2,099,200\n",
            "     BatchNorm2d-139         [-1, 1024, 28, 28]           2,048\n",
            "            ReLU-140         [-1, 1024, 28, 28]               0\n",
            "          Conv2d-141          [-1, 512, 14, 14]         524,800\n",
            "     BatchNorm2d-142          [-1, 512, 14, 14]           1,024\n",
            "            ReLU-143          [-1, 512, 14, 14]               0\n",
            "          Conv2d-144          [-1, 512, 14, 14]       2,359,808\n",
            "     BatchNorm2d-145          [-1, 512, 14, 14]           1,024\n",
            "            ReLU-146          [-1, 512, 14, 14]               0\n",
            "          Conv2d-147         [-1, 2048, 14, 14]       1,050,624\n",
            "      BottleNeck-148         [-1, 2048, 14, 14]               0\n",
            "     BatchNorm2d-149         [-1, 2048, 14, 14]           4,096\n",
            "            ReLU-150         [-1, 2048, 14, 14]               0\n",
            "          Conv2d-151          [-1, 512, 14, 14]       1,049,088\n",
            "     BatchNorm2d-152          [-1, 512, 14, 14]           1,024\n",
            "            ReLU-153          [-1, 512, 14, 14]               0\n",
            "          Conv2d-154          [-1, 512, 14, 14]       2,359,808\n",
            "     BatchNorm2d-155          [-1, 512, 14, 14]           1,024\n",
            "            ReLU-156          [-1, 512, 14, 14]               0\n",
            "          Conv2d-157         [-1, 2048, 14, 14]       1,050,624\n",
            "      BottleNeck-158         [-1, 2048, 14, 14]               0\n",
            "     BatchNorm2d-159         [-1, 2048, 14, 14]           4,096\n",
            "            ReLU-160         [-1, 2048, 14, 14]               0\n",
            "          Conv2d-161          [-1, 512, 14, 14]       1,049,088\n",
            "     BatchNorm2d-162          [-1, 512, 14, 14]           1,024\n",
            "            ReLU-163          [-1, 512, 14, 14]               0\n",
            "          Conv2d-164          [-1, 512, 14, 14]       2,359,808\n",
            "     BatchNorm2d-165          [-1, 512, 14, 14]           1,024\n",
            "            ReLU-166          [-1, 512, 14, 14]               0\n",
            "          Conv2d-167         [-1, 2048, 14, 14]       1,050,624\n",
            "      BottleNeck-168         [-1, 2048, 14, 14]               0\n",
            "AdaptiveAvgPool2d-169           [-1, 2048, 1, 1]               0\n",
            "          Linear-170                   [-1, 10]          20,490\n",
            "================================================================\n",
            "Total params: 23,535,754\n",
            "Trainable params: 23,535,754\n",
            "Non-trainable params: 0\n",
            "----------------------------------------------------------------\n",
            "Input size (MB): 0.57\n",
            "Forward/backward pass size (MB): 1058.11\n",
            "Params size (MB): 89.78\n",
…
